{"config": {"name": "model_1", "layers": [{"config": {"dtype": "float32", "name": "input_1", "sparse": false, "batch_input_shape": [null, 128, 128, 3]}, "class_name": "InputLayer", "name": "input_1", "inbound_nodes": []}, {"config": {"bias_constraint": null, "padding": "valid", "name": "conv2d_1", "kernel_regularizer": null, "bias_regularizer": null, "trainable": true, "filters": 8, "kernel_constraint": null, "data_format": "channels_last", "kernel_size": [7, 7], "bias_initializer": {"config": {}, "class_name": "Zeros"}, "strides": [2, 2], "kernel_initializer": {"config": {"scale": 1.0, "seed": null, "mode": "fan_avg", "distribution": "uniform"}, "class_name": "VarianceScaling"}, "dilation_rate": [1, 1], "activation": "relu", "activity_regularizer": null, "use_bias": true}, "class_name": "Conv2D", "name": "conv2d_1", "inbound_nodes": [[["input_1", 0, 0, {}]]]}, {"config": {"padding": "same", "strides": [2, 2], "name": "max_pooling2d_1", "trainable": true, "data_format": "channels_last", "pool_size": [3, 3]}, "class_name": "MaxPooling2D", "name": "max_pooling2d_1", "inbound_nodes": [[["conv2d_1", 0, 0, {}]]]}, {"config": {"beta_constraint": null, "center": true, "gamma_regularizer": null, "axis": -1, "trainable": true, "gamma_constraint": null, "momentum": 0.99, "scale": true, "name": "batch_normalization_1", "moving_mean_initializer": {"config": {}, "class_name": "Zeros"}, "epsilon": 0.001, "beta_initializer": {"config": {}, "class_name": "Zeros"}, "moving_variance_initializer": {"config": {}, "class_name": "Ones"}, "gamma_initializer": {"config": {}, "class_name": "Ones"}, "beta_regularizer": null}, "class_name": "BatchNormalization", "name": "batch_normalization_1", "inbound_nodes": [[["max_pooling2d_1", 0, 0, {}]]]}, {"config": {"bias_constraint": null, "padding": "valid", "name": "conv2d_2", "kernel_regularizer": null, "bias_regularizer": null, "trainable": true, "filters": 16, "kernel_constraint": null, "data_format": "channels_last", "kernel_size": [1, 1], "bias_initializer": {"config": {}, "class_name": "Zeros"}, "strides": [1, 1], "kernel_initializer": {"config": {"scale": 1.0, "seed": null, "mode": "fan_avg", "distribution": "uniform"}, "class_name": "VarianceScaling"}, "dilation_rate": [1, 1], "activation": "relu", "activity_regularizer": null, "use_bias": true}, "class_name": "Conv2D", "name": "conv2d_2", "inbound_nodes": [[["batch_normalization_1", 0, 0, {}]]]}, {"config": {"bias_constraint": null, "padding": "valid", "name": "conv2d_3", "kernel_regularizer": null, "bias_regularizer": null, "trainable": true, "filters": 32, "kernel_constraint": null, "data_format": "channels_last", "kernel_size": [3, 3], "bias_initializer": {"config": {}, "class_name": "Zeros"}, "strides": [1, 1], "kernel_initializer": {"config": {"scale": 1.0, "seed": null, "mode": "fan_avg", "distribution": "uniform"}, "class_name": "VarianceScaling"}, "dilation_rate": [1, 1], "activation": "relu", "activity_regularizer": null, "use_bias": true}, "class_name": "Conv2D", "name": "conv2d_3", "inbound_nodes": [[["conv2d_2", 0, 0, {}]]]}, {"config": {"beta_constraint": null, "center": true, "gamma_regularizer": null, "axis": -1, "trainable": true, "gamma_constraint": null, "momentum": 0.99, "scale": true, "name": "batch_normalization_2", "moving_mean_initializer": {"config": {}, "class_name": "Zeros"}, "epsilon": 0.001, "beta_initializer": {"config": {}, "class_name": "Zeros"}, "moving_variance_initializer": {"config": {}, "class_name": "Ones"}, "gamma_initializer": {"config": {}, "class_name": "Ones"}, "beta_regularizer": null}, "class_name": "BatchNormalization", "name": "batch_normalization_2", "inbound_nodes": [[["conv2d_3", 0, 0, {}]]]}, {"config": {"padding": "same", "strides": [2, 2], "name": "max_pooling2d_2", "trainable": true, "data_format": "channels_last", "pool_size": [3, 3]}, "class_name": "MaxPooling2D", "name": "max_pooling2d_2", "inbound_nodes": [[["batch_normalization_2", 0, 0, {}]]]}, {"config": {"bias_constraint": null, "padding": "same", "name": "conv2d_4", "kernel_regularizer": null, "bias_regularizer": null, "trainable": true, "filters": 64, "kernel_constraint": null, "data_format": "channels_last", "kernel_size": [1, 1], "bias_initializer": {"config": {}, "class_name": "Zeros"}, "strides": [1, 1], "kernel_initializer": {"config": {"scale": 1.0, "seed": null, "mode": "fan_avg", "distribution": "uniform"}, "class_name": "VarianceScaling"}, "dilation_rate": [1, 1], "activation": "relu", "activity_regularizer": null, "use_bias": true}, "class_name": "Conv2D", "name": "conv2d_4", "inbound_nodes": [[["max_pooling2d_2", 0, 0, {}]]]}, {"config": {"bias_constraint": null, "padding": "same", "name": "conv2d_6", "kernel_regularizer": null, "bias_regularizer": null, "trainable": true, "filters": 64, "kernel_constraint": null, "data_format": "channels_last", "kernel_size": [1, 1], "bias_initializer": {"config": {}, "class_name": "Zeros"}, "strides": [1, 1], "kernel_initializer": {"config": {"scale": 1.0, "seed": null, "mode": "fan_avg", "distribution": "uniform"}, "class_name": "VarianceScaling"}, "dilation_rate": [1, 1], "activation": "relu", "activity_regularizer": null, "use_bias": true}, "class_name": "Conv2D", "name": "conv2d_6", "inbound_nodes": [[["max_pooling2d_2", 0, 0, {}]]]}, {"config": {"padding": "same", "strides": [1, 1], "name": "max_pooling2d_3", "trainable": true, "data_format": "channels_last", "pool_size": [3, 3]}, "class_name": "MaxPooling2D", "name": "max_pooling2d_3", "inbound_nodes": [[["max_pooling2d_2", 0, 0, {}]]]}, {"config": {"bias_constraint": null, "padding": "same", "name": "conv2d_5", "kernel_regularizer": null, "bias_regularizer": null, "trainable": true, "filters": 64, "kernel_constraint": null, "data_format": "channels_last", "kernel_size": [3, 3], "bias_initializer": {"config": {}, "class_name": "Zeros"}, "strides": [1, 1], "kernel_initializer": {"config": {"scale": 1.0, "seed": null, "mode": "fan_avg", "distribution": "uniform"}, "class_name": "VarianceScaling"}, "dilation_rate": [1, 1], "activation": "relu", "activity_regularizer": null, "use_bias": true}, "class_name": "Conv2D", "name": "conv2d_5", "inbound_nodes": [[["conv2d_4", 0, 0, {}]]]}, {"config": {"bias_constraint": null, "padding": "same", "name": "conv2d_7", "kernel_regularizer": null, "bias_regularizer": null, "trainable": true, "filters": 64, "kernel_constraint": null, "data_format": "channels_last", "kernel_size": [5, 5], "bias_initializer": {"config": {}, "class_name": "Zeros"}, "strides": [1, 1], "kernel_initializer": {"config": {"scale": 1.0, "seed": null, "mode": "fan_avg", "distribution": "uniform"}, "class_name": "VarianceScaling"}, "dilation_rate": [1, 1], "activation": "relu", "activity_regularizer": null, "use_bias": true}, "class_name": "Conv2D", "name": "conv2d_7", "inbound_nodes": [[["conv2d_6", 0, 0, {}]]]}, {"config": {"bias_constraint": null, "padding": "same", "name": "conv2d_8", "kernel_regularizer": null, "bias_regularizer": null, "trainable": true, "filters": 64, "kernel_constraint": null, "data_format": "channels_last", "kernel_size": [3, 3], "bias_initializer": {"config": {}, "class_name": "Zeros"}, "strides": [1, 1], "kernel_initializer": {"config": {"scale": 1.0, "seed": null, "mode": "fan_avg", "distribution": "uniform"}, "class_name": "VarianceScaling"}, "dilation_rate": [1, 1], "activation": "relu", "activity_regularizer": null, "use_bias": true}, "class_name": "Conv2D", "name": "conv2d_8", "inbound_nodes": [[["max_pooling2d_3", 0, 0, {}]]]}, {"config": {"bias_constraint": null, "padding": "same", "name": "conv2d_9", "kernel_regularizer": null, "bias_regularizer": null, "trainable": true, "filters": 64, "kernel_constraint": null, "data_format": "channels_last", "kernel_size": [3, 3], "bias_initializer": {"config": {}, "class_name": "Zeros"}, "strides": [1, 1], "kernel_initializer": {"config": {"scale": 1.0, "seed": null, "mode": "fan_avg", "distribution": "uniform"}, "class_name": "VarianceScaling"}, "dilation_rate": [1, 1], "activation": "relu", "activity_regularizer": null, "use_bias": true}, "class_name": "Conv2D", "name": "conv2d_9", "inbound_nodes": [[["max_pooling2d_2", 0, 0, {}]]]}, {"config": {"name": "concatenate_1", "axis": 1, "trainable": true}, "class_name": "Concatenate", "name": "concatenate_1", "inbound_nodes": [[["conv2d_5", 0, 0, {}], ["conv2d_7", 0, 0, {}], ["conv2d_8", 0, 0, {}], ["conv2d_9", 0, 0, {}]]]}, {"config": {"padding": "same", "strides": [2, 2], "name": "max_pooling2d_4", "trainable": true, "data_format": "channels_last", "pool_size": [3, 3]}, "class_name": "MaxPooling2D", "name": "max_pooling2d_4", "inbound_nodes": [[["concatenate_1", 0, 0, {}]]]}, {"config": {"bias_constraint": null, "padding": "same", "name": "conv2d_10", "kernel_regularizer": null, "bias_regularizer": null, "trainable": true, "filters": 64, "kernel_constraint": null, "data_format": "channels_last", "kernel_size": [1, 1], "bias_initializer": {"config": {}, "class_name": "Zeros"}, "strides": [1, 1], "kernel_initializer": {"config": {"scale": 1.0, "seed": null, "mode": "fan_avg", "distribution": "uniform"}, "class_name": "VarianceScaling"}, "dilation_rate": [1, 1], "activation": "relu", "activity_regularizer": null, "use_bias": true}, "class_name": "Conv2D", "name": "conv2d_10", "inbound_nodes": [[["max_pooling2d_4", 0, 0, {}]]]}, {"config": {"bias_constraint": null, "padding": "same", "name": "conv2d_12", "kernel_regularizer": null, "bias_regularizer": null, "trainable": true, "filters": 64, "kernel_constraint": null, "data_format": "channels_last", "kernel_size": [1, 1], "bias_initializer": {"config": {}, "class_name": "Zeros"}, "strides": [1, 1], "kernel_initializer": {"config": {"scale": 1.0, "seed": null, "mode": "fan_avg", "distribution": "uniform"}, "class_name": "VarianceScaling"}, "dilation_rate": [1, 1], "activation": "relu", "activity_regularizer": null, "use_bias": true}, "class_name": "Conv2D", "name": "conv2d_12", "inbound_nodes": [[["max_pooling2d_4", 0, 0, {}]]]}, {"config": {"padding": "same", "strides": [1, 1], "name": "max_pooling2d_5", "trainable": true, "data_format": "channels_last", "pool_size": [3, 3]}, "class_name": "MaxPooling2D", "name": "max_pooling2d_5", "inbound_nodes": [[["max_pooling2d_4", 0, 0, {}]]]}, {"config": {"bias_constraint": null, "padding": "same", "name": "conv2d_11", "kernel_regularizer": null, "bias_regularizer": null, "trainable": true, "filters": 64, "kernel_constraint": null, "data_format": "channels_last", "kernel_size": [3, 3], "bias_initializer": {"config": {}, "class_name": "Zeros"}, "strides": [1, 1], "kernel_initializer": {"config": {"scale": 1.0, "seed": null, "mode": "fan_avg", "distribution": "uniform"}, "class_name": "VarianceScaling"}, "dilation_rate": [1, 1], "activation": "relu", "activity_regularizer": null, "use_bias": true}, "class_name": "Conv2D", "name": "conv2d_11", "inbound_nodes": [[["conv2d_10", 0, 0, {}]]]}, {"config": {"bias_constraint": null, "padding": "same", "name": "conv2d_13", "kernel_regularizer": null, "bias_regularizer": null, "trainable": true, "filters": 64, "kernel_constraint": null, "data_format": "channels_last", "kernel_size": [5, 5], "bias_initializer": {"config": {}, "class_name": "Zeros"}, "strides": [1, 1], "kernel_initializer": {"config": {"scale": 1.0, "seed": null, "mode": "fan_avg", "distribution": "uniform"}, "class_name": "VarianceScaling"}, "dilation_rate": [1, 1], "activation": "relu", "activity_regularizer": null, "use_bias": true}, "class_name": "Conv2D", "name": "conv2d_13", "inbound_nodes": [[["conv2d_12", 0, 0, {}]]]}, {"config": {"bias_constraint": null, "padding": "same", "name": "conv2d_14", "kernel_regularizer": null, "bias_regularizer": null, "trainable": true, "filters": 64, "kernel_constraint": null, "data_format": "channels_last", "kernel_size": [3, 3], "bias_initializer": {"config": {}, "class_name": "Zeros"}, "strides": [1, 1], "kernel_initializer": {"config": {"scale": 1.0, "seed": null, "mode": "fan_avg", "distribution": "uniform"}, "class_name": "VarianceScaling"}, "dilation_rate": [1, 1], "activation": "relu", "activity_regularizer": null, "use_bias": true}, "class_name": "Conv2D", "name": "conv2d_14", "inbound_nodes": [[["max_pooling2d_5", 0, 0, {}]]]}, {"config": {"bias_constraint": null, "padding": "same", "name": "conv2d_15", "kernel_regularizer": null, "bias_regularizer": null, "trainable": true, "filters": 64, "kernel_constraint": null, "data_format": "channels_last", "kernel_size": [3, 3], "bias_initializer": {"config": {}, "class_name": "Zeros"}, "strides": [1, 1], "kernel_initializer": {"config": {"scale": 1.0, "seed": null, "mode": "fan_avg", "distribution": "uniform"}, "class_name": "VarianceScaling"}, "dilation_rate": [1, 1], "activation": "relu", "activity_regularizer": null, "use_bias": true}, "class_name": "Conv2D", "name": "conv2d_15", "inbound_nodes": [[["max_pooling2d_4", 0, 0, {}]]]}, {"config": {"name": "concatenate_2", "axis": 1, "trainable": true}, "class_name": "Concatenate", "name": "concatenate_2", "inbound_nodes": [[["conv2d_11", 0, 0, {}], ["conv2d_13", 0, 0, {}], ["conv2d_14", 0, 0, {}], ["conv2d_15", 0, 0, {}]]]}, {"config": {"bias_constraint": null, "padding": "same", "name": "conv2d_16", "kernel_regularizer": null, "bias_regularizer": null, "trainable": true, "filters": 64, "kernel_constraint": null, "data_format": "channels_last", "kernel_size": [1, 1], "bias_initializer": {"config": {}, "class_name": "Zeros"}, "strides": [1, 1], "kernel_initializer": {"config": {"scale": 1.0, "seed": null, "mode": "fan_avg", "distribution": "uniform"}, "class_name": "VarianceScaling"}, "dilation_rate": [1, 1], "activation": "relu", "activity_regularizer": null, "use_bias": true}, "class_name": "Conv2D", "name": "conv2d_16", "inbound_nodes": [[["concatenate_2", 0, 0, {}]]]}, {"config": {"bias_constraint": null, "padding": "same", "name": "conv2d_18", "kernel_regularizer": null, "bias_regularizer": null, "trainable": true, "filters": 64, "kernel_constraint": null, "data_format": "channels_last", "kernel_size": [1, 1], "bias_initializer": {"config": {}, "class_name": "Zeros"}, "strides": [1, 1], "kernel_initializer": {"config": {"scale": 1.0, "seed": null, "mode": "fan_avg", "distribution": "uniform"}, "class_name": "VarianceScaling"}, "dilation_rate": [1, 1], "activation": "relu", "activity_regularizer": null, "use_bias": true}, "class_name": "Conv2D", "name": "conv2d_18", "inbound_nodes": [[["concatenate_2", 0, 0, {}]]]}, {"config": {"padding": "same", "strides": [1, 1], "name": "max_pooling2d_6", "trainable": true, "data_format": "channels_last", "pool_size": [3, 3]}, "class_name": "MaxPooling2D", "name": "max_pooling2d_6", "inbound_nodes": [[["concatenate_2", 0, 0, {}]]]}, {"config": {"bias_constraint": null, "padding": "same", "name": "conv2d_17", "kernel_regularizer": null, "bias_regularizer": null, "trainable": true, "filters": 64, "kernel_constraint": null, "data_format": "channels_last", "kernel_size": [3, 3], "bias_initializer": {"config": {}, "class_name": "Zeros"}, "strides": [1, 1], "kernel_initializer": {"config": {"scale": 1.0, "seed": null, "mode": "fan_avg", "distribution": "uniform"}, "class_name": "VarianceScaling"}, "dilation_rate": [1, 1], "activation": "relu", "activity_regularizer": null, "use_bias": true}, "class_name": "Conv2D", "name": "conv2d_17", "inbound_nodes": [[["conv2d_16", 0, 0, {}]]]}, {"config": {"bias_constraint": null, "padding": "same", "name": "conv2d_19", "kernel_regularizer": null, "bias_regularizer": null, "trainable": true, "filters": 64, "kernel_constraint": null, "data_format": "channels_last", "kernel_size": [5, 5], "bias_initializer": {"config": {}, "class_name": "Zeros"}, "strides": [1, 1], "kernel_initializer": {"config": {"scale": 1.0, "seed": null, "mode": "fan_avg", "distribution": "uniform"}, "class_name": "VarianceScaling"}, "dilation_rate": [1, 1], "activation": "relu", "activity_regularizer": null, "use_bias": true}, "class_name": "Conv2D", "name": "conv2d_19", "inbound_nodes": [[["conv2d_18", 0, 0, {}]]]}, {"config": {"bias_constraint": null, "padding": "same", "name": "conv2d_20", "kernel_regularizer": null, "bias_regularizer": null, "trainable": true, "filters": 64, "kernel_constraint": null, "data_format": "channels_last", "kernel_size": [3, 3], "bias_initializer": {"config": {}, "class_name": "Zeros"}, "strides": [1, 1], "kernel_initializer": {"config": {"scale": 1.0, "seed": null, "mode": "fan_avg", "distribution": "uniform"}, "class_name": "VarianceScaling"}, "dilation_rate": [1, 1], "activation": "relu", "activity_regularizer": null, "use_bias": true}, "class_name": "Conv2D", "name": "conv2d_20", "inbound_nodes": [[["max_pooling2d_6", 0, 0, {}]]]}, {"config": {"bias_constraint": null, "padding": "same", "name": "conv2d_21", "kernel_regularizer": null, "bias_regularizer": null, "trainable": true, "filters": 64, "kernel_constraint": null, "data_format": "channels_last", "kernel_size": [3, 3], "bias_initializer": {"config": {}, "class_name": "Zeros"}, "strides": [1, 1], "kernel_initializer": {"config": {"scale": 1.0, "seed": null, "mode": "fan_avg", "distribution": "uniform"}, "class_name": "VarianceScaling"}, "dilation_rate": [1, 1], "activation": "relu", "activity_regularizer": null, "use_bias": true}, "class_name": "Conv2D", "name": "conv2d_21", "inbound_nodes": [[["concatenate_2", 0, 0, {}]]]}, {"config": {"name": "concatenate_3", "axis": 1, "trainable": true}, "class_name": "Concatenate", "name": "concatenate_3", "inbound_nodes": [[["conv2d_17", 0, 0, {}], ["conv2d_19", 0, 0, {}], ["conv2d_20", 0, 0, {}], ["conv2d_21", 0, 0, {}]]]}, {"config": {"bias_constraint": null, "padding": "same", "name": "conv2d_22", "kernel_regularizer": null, "bias_regularizer": null, "trainable": true, "filters": 64, "kernel_constraint": null, "data_format": "channels_last", "kernel_size": [1, 1], "bias_initializer": {"config": {}, "class_name": "Zeros"}, "strides": [1, 1], "kernel_initializer": {"config": {"scale": 1.0, "seed": null, "mode": "fan_avg", "distribution": "uniform"}, "class_name": "VarianceScaling"}, "dilation_rate": [1, 1], "activation": "relu", "activity_regularizer": null, "use_bias": true}, "class_name": "Conv2D", "name": "conv2d_22", "inbound_nodes": [[["concatenate_3", 0, 0, {}]]]}, {"config": {"bias_constraint": null, "padding": "same", "name": "conv2d_24", "kernel_regularizer": null, "bias_regularizer": null, "trainable": true, "filters": 64, "kernel_constraint": null, "data_format": "channels_last", "kernel_size": [1, 1], "bias_initializer": {"config": {}, "class_name": "Zeros"}, "strides": [1, 1], "kernel_initializer": {"config": {"scale": 1.0, "seed": null, "mode": "fan_avg", "distribution": "uniform"}, "class_name": "VarianceScaling"}, "dilation_rate": [1, 1], "activation": "relu", "activity_regularizer": null, "use_bias": true}, "class_name": "Conv2D", "name": "conv2d_24", "inbound_nodes": [[["concatenate_3", 0, 0, {}]]]}, {"config": {"padding": "same", "strides": [1, 1], "name": "max_pooling2d_7", "trainable": true, "data_format": "channels_last", "pool_size": [3, 3]}, "class_name": "MaxPooling2D", "name": "max_pooling2d_7", "inbound_nodes": [[["concatenate_3", 0, 0, {}]]]}, {"config": {"bias_constraint": null, "padding": "same", "name": "conv2d_23", "kernel_regularizer": null, "bias_regularizer": null, "trainable": true, "filters": 64, "kernel_constraint": null, "data_format": "channels_last", "kernel_size": [3, 3], "bias_initializer": {"config": {}, "class_name": "Zeros"}, "strides": [1, 1], "kernel_initializer": {"config": {"scale": 1.0, "seed": null, "mode": "fan_avg", "distribution": "uniform"}, "class_name": "VarianceScaling"}, "dilation_rate": [1, 1], "activation": "relu", "activity_regularizer": null, "use_bias": true}, "class_name": "Conv2D", "name": "conv2d_23", "inbound_nodes": [[["conv2d_22", 0, 0, {}]]]}, {"config": {"bias_constraint": null, "padding": "same", "name": "conv2d_25", "kernel_regularizer": null, "bias_regularizer": null, "trainable": true, "filters": 64, "kernel_constraint": null, "data_format": "channels_last", "kernel_size": [5, 5], "bias_initializer": {"config": {}, "class_name": "Zeros"}, "strides": [1, 1], "kernel_initializer": {"config": {"scale": 1.0, "seed": null, "mode": "fan_avg", "distribution": "uniform"}, "class_name": "VarianceScaling"}, "dilation_rate": [1, 1], "activation": "relu", "activity_regularizer": null, "use_bias": true}, "class_name": "Conv2D", "name": "conv2d_25", "inbound_nodes": [[["conv2d_24", 0, 0, {}]]]}, {"config": {"bias_constraint": null, "padding": "same", "name": "conv2d_26", "kernel_regularizer": null, "bias_regularizer": null, "trainable": true, "filters": 64, "kernel_constraint": null, "data_format": "channels_last", "kernel_size": [3, 3], "bias_initializer": {"config": {}, "class_name": "Zeros"}, "strides": [1, 1], "kernel_initializer": {"config": {"scale": 1.0, "seed": null, "mode": "fan_avg", "distribution": "uniform"}, "class_name": "VarianceScaling"}, "dilation_rate": [1, 1], "activation": "relu", "activity_regularizer": null, "use_bias": true}, "class_name": "Conv2D", "name": "conv2d_26", "inbound_nodes": [[["max_pooling2d_7", 0, 0, {}]]]}, {"config": {"bias_constraint": null, "padding": "same", "name": "conv2d_27", "kernel_regularizer": null, "bias_regularizer": null, "trainable": true, "filters": 64, "kernel_constraint": null, "data_format": "channels_last", "kernel_size": [3, 3], "bias_initializer": {"config": {}, "class_name": "Zeros"}, "strides": [1, 1], "kernel_initializer": {"config": {"scale": 1.0, "seed": null, "mode": "fan_avg", "distribution": "uniform"}, "class_name": "VarianceScaling"}, "dilation_rate": [1, 1], "activation": "relu", "activity_regularizer": null, "use_bias": true}, "class_name": "Conv2D", "name": "conv2d_27", "inbound_nodes": [[["concatenate_3", 0, 0, {}]]]}, {"config": {"name": "concatenate_4", "axis": 1, "trainable": true}, "class_name": "Concatenate", "name": "concatenate_4", "inbound_nodes": [[["conv2d_23", 0, 0, {}], ["conv2d_25", 0, 0, {}], ["conv2d_26", 0, 0, {}], ["conv2d_27", 0, 0, {}]]]}, {"config": {"bias_constraint": null, "padding": "valid", "name": "conv2d_28", "kernel_regularizer": null, "bias_regularizer": null, "trainable": true, "filters": 32, "kernel_constraint": null, "data_format": "channels_last", "kernel_size": [3, 3], "bias_initializer": {"config": {}, "class_name": "Zeros"}, "strides": [1, 1], "kernel_initializer": {"config": {"scale": 1.0, "seed": null, "mode": "fan_avg", "distribution": "uniform"}, "class_name": "VarianceScaling"}, "dilation_rate": [1, 1], "activation": "linear", "activity_regularizer": null, "use_bias": true}, "class_name": "Conv2D", "name": "conv2d_28", "inbound_nodes": [[["concatenate_4", 0, 0, {}]]]}, {"config": {"name": "activation_1", "trainable": true, "activation": "relu"}, "class_name": "Activation", "name": "activation_1", "inbound_nodes": [[["conv2d_28", 0, 0, {}]]]}, {"config": {"padding": "valid", "strides": [2, 2], "name": "max_pooling2d_8", "trainable": true, "data_format": "channels_last", "pool_size": [2, 2]}, "class_name": "MaxPooling2D", "name": "max_pooling2d_8", "inbound_nodes": [[["activation_1", 0, 0, {}]]]}, {"config": {"name": "flatten_1", "trainable": true}, "class_name": "Flatten", "name": "flatten_1", "inbound_nodes": [[["max_pooling2d_8", 0, 0, {}]]]}, {"config": {"bias_constraint": null, "units": 8, "kernel_regularizer": null, "bias_regularizer": null, "trainable": true, "kernel_constraint": null, "name": "dense_1", "bias_initializer": {"config": {}, "class_name": "Zeros"}, "kernel_initializer": {"config": {"scale": 1.0, "seed": null, "mode": "fan_avg", "distribution": "uniform"}, "class_name": "VarianceScaling"}, "activation": "linear", "activity_regularizer": null, "use_bias": true}, "class_name": "Dense", "name": "dense_1", "inbound_nodes": [[["flatten_1", 0, 0, {}]]]}, {"config": {"name": "activation_2", "trainable": true, "activation": "softmax"}, "class_name": "Activation", "name": "activation_2", "inbound_nodes": [[["dense_1", 0, 0, {}]]]}], "input_layers": [["input_1", 0, 0]], "output_layers": [["activation_2", 0, 0]]}, "class_name": "Model", "keras_version": "2.1.5", "backend": "tensorflow"}